Task A/Saved_models/R18_E&E/R18_E&E.pth (torch, 160912 bytes, 4 tensors)

weight f4 [50, 784]
000000 de 42 3e bd 70 f1 b2 bc 18 85 f1 3b ab 99 25 bd
       -0.04645049 -0.021843642 0.0073706023 -0.040429752
000010 03 f6 7d 3c a0 cb 4a bd 18 c7 92 bc cd e5 50 bd
       0.015500548 -0.0495106 -0.0179172 -0.051000405
000020 b5 29 9b bd e4 3f 60 bd ad a8 45 bd cb 52 5a bd
       -0.07576314 -0.05474843 -0.048256565 -0.053301614
000030 67 a3 db bd 91 09 7a bd 7b 40 34 bd 43 66 0e bd
       -0.10724526 -0.06104428 -0.044006806 -0.034765493
000040 e4 41 7b bd 16 ff 57 bd 9b 1a f0 bc dc 6d 90 bd
       -0.061342135 -0.052733503 -0.029309561 -0.07052204
000050 fb d1 2a bd d7 03 25 bd 34 e0 40 bd ab 4e a1 bd
       -0.04170416 -0.040286865 -0.047088817 -0.07876333
000060 79 df 23 bc d6 e7 c0 bb c5 a1 fe bc 67 42 33 bd
       -0.0100020105 -0.005887012 -0.031082997 -0.043764498
000070 01 f9 ba 3a 5e 8e 84 3b 94 62 10 3d 1d ba b6 3c
       0.0014264883 0.004045292 0.03525026 0.022305543
000080 69 82 f7 bc f5 fe 85 bd 99 7c cb bc 65 b5 9e bc
       -0.030213552 -0.0654277 -0.024839686 -0.019373605
000090 19 51 b4 bc 4e ad 3f bd 38 e4 7b 3d c4 39 68 3d
       -0.022011327 -0.046796136 0.061496943 0.056695715
0000a0 0b 6b 51 bd 52 3e 5a bd da 7b fc bb c5 53 2d bd
       -0.051127475 -0.05328209 -0.007705194 -0.042316217
0000b0 f8 78 cf 3c e1 af b1 bb 9a 4b e0 3c cc 71 47 3c
       0.025326237 -0.0054225777 0.0273798 0.012173127
0000c0 1c 14 04 bd 5c 65 90 bd 8c bd 4f bd 36 5b 33 bd
       -0.03224574 -0.07050583 -0.050717875 -0.043788157
0000d0 0d 29 d9 b7 b9 70 a2 38 f6 b1 c8 bb fa b3 1b 3c
       -2.5887532e-05 7.745758e-05 -0.00612473 0.009503359
0000e0 10 db 5b 3d c9 ee 9a 3d f7 cf 2b 3c 4a 8a 00 be
       0.05367571 0.07565076 0.010486594 -0.12552753
0000f0 22 0d 0a be 7c 79 24 be 73 1e 16 be 3b 41 e5 bd
       -0.13481572 -0.16061968 -0.14660053 -0.11194082
000100 52 b1 cd bd 17 59 d3 3b 6a d9 a2 3d 3e 95 bf 3d
       -0.10043587 0.0064498293 0.07951625 0.093546376
000110 5c 6a 14 3d 3e 0e 8b bc 6d 93 b5 bb 89 0f ab bc
       0.036234245 -0.016974565 -0.005541256 -0.020881431
000120 33 a2 25 bd c5 9a 2f bb b8 f7 10 bd e0 1b b8 3a
       -0.04043789 -0.002679513 -0.035392493 0.0014046393
000130 2f 4d 3c 3b 45 e4 76 bc 65 a1 57 bc c3 cc d2 bc
       0.0028732528 -0.015069072 -0.013161038 -0.025732404
000140 43 f1 d5 3c b2 96 af bc 61 db 89 bc 75 19 c6 bd
       0.02611602 -0.021434162 -0.01682824 -0.09672824
000150 ae 5f 1d bd 00 a6 2d bd bc c6 a1 bb e4 49 2e bd
       -0.038421325 -0.042394638 -0.004937021 -0.042550936
000160 64 bd 3f bd ab 93 66 bd e7 9e 8b bd 55 b6 57 bd
       -0.046811476 -0.05629317 -0.068174176 -0.05266412
000170 11 47 f6 bc f3 bc fe 3c 85 1a d8 3c ec f8 be 3c
       -0.030063184 0.031095957 0.026379833 0.023312055
000180 18 83 2c bc 79 4a dd bc f6 b2 93 bd 72 ff 18 bd
       -0.010529302 -0.02701305 -0.072118685 -0.037352987
000190 6f 6b 1d bd 19 4c 8f bd f9 70 d6 bd e1 71 45 bd
       -0.038432535 -0.06996936 -0.104707666 -0.048204307
0001a0 69 85 82 bc 2b 1e 0b bd 01 5f 9a bd 78 83 01 bd
       -0.015932756 -0.033964317 -0.07537652 -0.03161952
0001b0 c6 9e 78 3a 56 e9 f9 3b 9c ca 4d 3b ed 03 1e bb
       0.00094841083 0.0076266928 0.0031401282 -0.0024111227
0001c0 f5 c9 46 bd 8c 43 83 bd 14 7d 31 bc 44 a7 a6 3c
       -0.048532445 -0.06409368 -0.010833044 0.02034343
0001d0 85 2f 69 bc bb e3 0f bd 94 9a e8 bd 14 0f ae bd
       -0.014232521 -0.03512929 -0.113576084 -0.0849897
0001e0 04 60 42 bc fe f5 d3 3b 00 3f 5c 3c 04 e1 02 bd
       -0.011863712 0.0064685335 0.013442755 -0.031952873
0001f0 9a a5 c3 3c 97 4a b2 3b 66 e2 93 bc 1b 6f 06 3d
       0.023882676 0.0054410207 -0.018052291 0.032820802
000200 ac 05 2d 3d 95 f7 a2 bc ca f2 91 ba 47 06 0e 3d
       0.042241737 -0.019893447 -0.0011134979 0.034673955
000210 2b ac 4c 3d 5e 73 92 3c 74 72 32 bd 1b d4 fe bc
       0.04996888 0.017877277 -0.043566182 -0.031107
000220 72 77 d4 bb 39 18 1b 3d 28 49 f3 bb a1 c7 0b 3c
       -0.0064839656 0.037864897 -0.0074244924 0.008531482
000230 cc 1f 8a 3d fd 6d c7 bb ef 16 06 bd 04 54 f2 bc
       0.06744346 -0.0060861097 -0.032736715 -0.029581077
000240 2a 62 77 bc 01 d9 2c bd db db cc bd 9b ec f9 bc
       -0.015099088 -0.04219914 -0.100028716 -0.03050833
000250 1e 6f 85 bd a3 c7 fa 39 51 2e 45 bc 8d e7 10 3d
       -0.065153345 0.00047832457 -0.0120349685 0.035377074
000260 71 67 b0 bc 9f 68 0a 3c 6b 7f af 3d 84 54 81 3d
       -0.0215337 0.008447795 0.08569225 0.06314948
000270 3c 2e 0d 3d 5b 8c 91 3c 06 06 7d 3d fe b8 67 bc
       0.03446792 0.017767122 0.061773323 -0.014143227
000280 53 f6 ef 3c c9 81 3f 3d a5 45 e0 bc 3a 4a 8f bd
       0.029292261 0.046754632 -0.02737696 -0.069965795
000290 b4 49 17 bd 52 8d 12 3d ae 94 b1 3c fd 64 64 bb
       -0.036935523 0.035779305 0.021677341 -0.0034850233
0002a0 e2 51 0f 3d 2e 7c e0 3b f8 68 e8 bd f2 b6 5a bd
       0.0349902 0.006850741 -0.11348146 -0.053397126
0002b0 82 8d 4b bd 57 4c bd bd 24 bb e2 bd 1d 32 c0 bd
       -0.0496955 -0.09243076 -0.110708505 -0.09384558
0002c0 1d 4a 51 3d b7 c2 0c 3d e5 dc 86 3d fa 9b f2 3d
       0.05109607 0.034365382 0.06585101 0.118461564
0002d0 ba 03 93 3d 4a 04 70 3d 95 20 c0 3d 52 f6 a5 3d
       0.07178445 0.05859784 0.093812145 0.081036225
0002e0 94 00 36 3d cc ee 52 3d da 7b 52 3d 6d 90 92 bb
       0.044434145 0.051497266 0.051387645 -0.0044727833
0002f0 9d ba 6c bd f4 59 43 bd 6e 64 3b bc 4a ae f2 bc
       -0.057795156 -0.047693208 -0.0114375185 -0.029624123
000300 7b 44 f8 bb 66 5b 68 3c e8 73 01 bd fb ab 5a 3d
       -0.007576523 0.014181947 -0.031604677 0.05338667
000310 ec d6 fe 3c 3d ad 22 3d f1 5f f0 bc d0 7e 3f bd
       0.031108342 0.039715994 -0.029342623 -0.046751797
000320 a7 03 07 be 48 7b bb bd 4e 8f 41 bc fb 13 bd 3c
       -0.13184987 -0.091543734 -0.011813952 0.023080816
000330 0b d2 35 3d 0d 3b ba bc 91 8a 64 3d f7 85 a7 3d
       0.044389766 -0.022733236 0.05579621 0.08179849
000340 39 03 63 3c f1 45 f0 3c 4c 06 42 bb 22 b1 84 bb
       0.013855749 0.029330226 -0.0029605804 -0.004049436
000350 5b 70 a9 3c f2 95 bc 3c 23 e4 b3 3c bb 18 b2 bc
       0.020683458 0.023020718 0.02195937 -0.021740308
000360 35 86 b2 bd 00 32 c0 bd 66 c8 65 bd b2 3e 93 bc
       -0.08717004 -0.09384537 -0.056099318 -0.017974231
000370 e3 bf aa 3c 6f 6b 16 3d e7 6e 9b bb 0f 16 78 3b
       0.020843452 0.03672355 -0.004743445 0.0037854945
000380 e0 5f 22 3d 59 98 a5 3c 4c 45 79 bd 15 fc 88 bd
       0.039642215 0.020214247 -0.060857102 -0.06688706
000390 25 df f2 bd 3c 40 15 bd 4c 4a f2 bb 75 83 32 bb
       -0.11858968 -0.03643821 -0.007394111 -0.0027239
0003a0 39 52 9d bc 09 c5 9e 3d e6 f1 72 3d aa 9c 5c 3d
       -0.019204246 0.07752425 0.059312724 0.053860344
0003b0 1f e5 13 3d 28 69 32 3d b0 03 62 bd 51 84 3e bd
       0.03610718 0.043557316 -0.055179298 -0.046512906
0003c0 b2 fd 3b 3d ae 0b 8b 3d 18 96 cc 3b 03 10 16 bd
       0.04589624 0.06789337 0.0062434785 -0.036636364
0003d0 e0 97 d3 bd 3e 3a 01 be ba 79 ab bd 3e ab 04 bd
       -0.10331702 -0.12619874 -0.08372827 -0.03238987
0003e0 f9 2c df 3c e4 78 2b bb 7e 95 6d 3b 01 cd 9b bd
       0.027243124 -0.0026164586 0.0036252434 -0.07607461
0003f0 03 42 41 3d 2c ac 15 3d 5f 2a 2c bd 49 74 c0 bd
       0.047182094 0.03654115 -0.042032596 -0.0939718

bias f4 [50]
000000 ce 35 cf bc cb f3 40 3c b8 5d 0a bd 3c b2 93 3c
       -0.02529421 0.011776875 -0.033780783 0.018029325
000010 e7 96 0c 3d 80 2f 7f bb 47 32 4d 3c d4 2d c8 3c
       0.0343236 -0.0038938224 0.012524194 0.024435915
000020 26 e3 85 3c b3 e1 c6 bc ad 88 bb bb d4 f0 f3 3b
       0.016343664 -0.024277544 -0.00572308 0.0074444804
000030 2b 37 d6 3b 86 a9 ea bc b9 8a c9 3b 79 7a cc bc
       0.0065373383 -0.028645288 0.00615057 -0.024960743
000040 a3 5d b6 bc 44 b9 58 3c 81 5f 03 bd 30 1d 06 bd
       -0.022261446 0.0132277645 -0.0320735 -0.03274268
000050 e1 52 47 3c d4 5c b7 bc 85 2d 16 3d 80 be 5e 3c
       0.012165756 -0.022383131 0.036664505 0.013595223
000060 83 c7 fa 3c 14 6c 00 bd 02 3f bd bb be 3b 67 3d
       0.030612713 -0.03135307 -0.0057753334 0.05645346
000070 87 59 12 3d 81 d4 3e 3d 44 6a 9f 3c a2 d1 02 3c
       0.03572991 0.04658938 0.019459851 0.007984551
000080 fe 01 28 bc 4d 99 20 3d 72 84 1f 3d e8 90 9f 3c
       -0.010254381 0.0392087 0.03894467 0.019478276
000090 74 11 ef ba a9 51 95 3d 5b d3 1f 3d 55 63 d2 bc
       -0.0018239454 0.07290966 0.039019924 -0.02568213
0000a0 ce e3 92 3b bf 38 b2 3c c8 6c e0 3c 68 f3 88 3d
       0.004482723 0.021755574 0.027395621 0.06687051
0000b0 7e c8 b9 3c 44 55 e5 bb 94 c1 11 bd 86 2b 20 3c
       0.02267861 -0.00699869 -0.035585 0.009776002
0000c0 70 21 09 3b 71 aa 18 bc
       0.0020924471 -0.00931798

weight f4 [2, 50]
000000 d2 8f ba be e4 77 ed 3c ce ec a2 bd e5 49 23 be
       -0.3643785 0.028987832 -0.07955323 -0.15946157
000010 d2 42 45 be 3c 50 9f bd 24 44 85 3c 5f 7d 5c bd
       -0.19263771 -0.07778975 0.016267844 -0.0538305
000020 5d df 07 bd 03 45 9b 3d cc 82 fa 3d 88 3a 27 3e
       -0.033172 0.07581522 0.12231979 0.16330922
000030 80 5d 5b bd 46 91 95 bd 3d de e2 bd 9d 6d c3 bd
       -0.053555965 -0.07303099 -0.11077545 -0.095423914
000040 30 83 9e 3d 66 be 93 3d f4 89 ef 3d 4e 0e a1 bd
       0.07739866 0.0721405 0.11696234 -0.078640565
000050 f5 9f 22 bd 31 36 d5 3c bf 51 79 be 01 9c 68 3d
       -0.03970333 0.026026817 -0.2434759 0.056789402
000060 bf af 1b be 11 6e de 3d c3 66 13 be 6c 36 49 be
       -0.1520376 0.10860837 -0.14394669 -0.19649667
000070 d7 9f f5 bd 65 b4 5e be 27 87 e0 bd 7e 07 dc bc
       -0.11993378 -0.21748503 -0.10963278 -0.026859041
000080 95 f6 ad bc 77 b9 b6 bd 84 d5 03 be b1 18 43 be
       -0.021235744 -0.08922093 -0.12874418 -0.19052388
000090 64 dd 06 bc ab 5c 63 be a4 21 33 bd 40 f4 da bc
       -0.008231495 -0.22203319 -0.043733254 -0.026727796
0000a0 d2 69 0e 3c 99 81 68 bd ab 90 55 be db 1a 7e be
       0.008692222 -0.05676422 -0.20855968 -0.24814932
0000b0 0a 44 a1 3d fb cd 3d be b2 ed 43 3d 78 38 9b 3d
       0.078743055 -0.18535607 0.047834106 0.0757913
0000c0 d0 97 bf 3c 16 14 b7 3c ae 26 8c 3e 7d 55 3b be
       0.02338782 0.022348445 0.2737326 -0.1829433
0000d0 61 9b 04 be 44 f8 05 3e f0 78 82 3e 0e c9 fd bd
       -0.12949897 0.13082987 0.25482893 -0.12391864
0000e0 fc cf 1a be 93 63 49 3e 35 42 d6 bd 6c f2 0d bd
       -0.15118402 0.19666891 -0.10461847 -0.03465502
0000f0 8b 38 1b bd 6e 32 93 bd 8c 6e 8d 3e ee c7 8b bd
       -0.03789572 -0.07187353 0.27623403 -0.06825243
000100 a5 5d 5d 3e 48 fc c6 bd 48 64 9b 3d a0 2e eb bd
       0.21617754 -0.097160876 0.075874865 -0.114835024
000110 b1 0b 14 3d de 02 bd bd 2b 10 8b 3d 67 f4 16 3d
       0.036143962 -0.092290625 0.06790193 0.036854174
000120 56 0b d2 3d 16 72 9d bd 92 d9 81 3e 69 37 bf 3d
       0.102560684 -0.07687776 0.25361305 0.093367405
000130 e9 0b 5a 3e dc 35 33 3e fd e6 8f 3e c7 4d 4f 3e
       0.21293606 0.17501014 0.28105918 0.20244513
000140 b0 7f 30 3e f7 d0 60 3e b9 e0 88 bd 04 ea 76 3e
       0.17236209 0.21954714 -0.066834874 0.24112707
000150 da 29 4b 3e 54 66 90 3e d8 01 09 be 42 35 42 3e
       0.19840184 0.2820307 -0.1337961 0.18965629
000160 a6 af 61 3e 6b e5 db bd 1b ca ec bb 95 88 46 3e
       0.22039661 -0.107371174 -0.0072262413 0.1938804
000170 74 4a 87 3d e4 68 17 3e b9 94 4e 3d f1 d7 f9 3d
       0.06605998 0.14786106 0.0504348 0.12199391
000180 b5 06 b5 bd ef 0c 05 be 80 7d 08 3b 42 8b ac bc
       -0.0883917 -0.12993215 0.0020826757 -0.021062497

bias f4 [2]
000000 19 67 0a 3d cd 91 b4 3d
       0.033789728 0.08816872
